Influence_Functions_LL-CDW/model/original_CNN_full_l005.pt (torch_old, 4568 bytes, 8 tensors)

layer1.0.weight f4 [5, 1, 15]
00000000: 31d1 0abd 163c 943c b844 2e3e 9d81 46be
00000010: 5467 78be 3a8d d03c 5410 78bd 9f4f c33c
00000020: 79ee 85bc 16d3 7ebe ec97 7cbe 58fc 8cbd
00000030: df80 1bbe e269 22be a3be 99bd 4ff9 48be
00000040: d317 98be 282e 67be 5cca 68bc 42a9 d8bc
00000050: bb11 7dbe 9d45 82be 224b e0bd 1428 92be
00000060: 7c7b 46be 214a 943d 474d 283b 9aec 48be
00000070: dc7d 73be 0458 1a3e a04c 01bd c80e 0c3f
00000080: cc99 1c3e ddc4 853e 4fdc 283f ff44 dd3e
00000090: 55f4 d53e 59e8 0b3f b53a 843e 9e15 cb3d
000000a0: 50aa 523d 886a 243e 84cd 0a3f 9179 143e
000000b0: 0d32 2b3e 0c71 523e c339 5c3e a34e 12be
000000c0: 634d 43be 1da8 293d 1ce1 333e 051d a43e
000000d0: 55a9 8b3d 62f7 efbd b32b 3cbe 760a 7c3b
000000e0: 91d4 093e 9912 3bbe 9c17 043e 2435 27be
000000f0: a1c5 4b3e 225a 1fbe 09b8 2d3e d4e2 26be
00000100: cb02 47bd 8fa7 5abe 0833 5ebe 66c5 0fbe
00000110: 2fcc 253c 8f33 22be 072d cc3d b3f2 903d
00000120: 0952 03be 0ead 69be af98 b4bd
-0.033890907 0.018095057 0.17018402 -0.19385381 -0.24258167 0.025457967 -0.060562447 0.023841677
-0.016349064 -0.2488521 -0.24667329 -0.06884068 -0.15185879 -0.15860704 -0.07507064 -0.19626354
-0.29705676 -0.22576201 -0.0142084025 -0.026447896 -0.24713795 -0.25443736 -0.109518304 -0.28546202
-0.19383043 0.072407015 0.0025680827 -0.19621506 -0.2377848 0.15072638 -0.031567216 0.54710054
0.15293044 0.26126757 0.65961164 0.43216702 0.41787973 0.5465141 0.2582604 0.099162325
0.051431954 0.16056263 0.5421984 0.14499499 0.16718312 0.20550936 0.2150641 -0.1428781
-0.1907249 0.04142009 0.17566341 0.3205339 0.06819407 -0.117171064 -0.18376045 0.0038458384
0.13459994 -0.18268813 0.12899631 -0.16328865 0.19899608 -0.15561727 0.16964735 -0.16297466
-0.048586648 -0.21352981 -0.21699154 -0.14040145 0.010119482 -0.1583998 0.09969526 0.07077541
-0.12824263 -0.22819921 -0.088181846

layer1.0.bias f4 [5]
00000000: 1d1b 4ebe 17b0 663e 825a 5b3d a2bc aabd
00000010: b5b7 7cbe
-0.2012753 0.2252811 0.05355311 -0.0833676 -0.24679454

layer2.0.weight f4 [8, 5, 5]
00000000: aa4c 23be 43aa 1e3e 5457 1fbd d70f ba3d
00000010: 90ba 3c3e e36e 4abd a7c7 d13d d5b9 003e
00000020: ccaa 49be c699 da3d 8908 6cbd 1400 4d3c
00000030: 3ecf c3bd 4436 ae3c 8a9e abbd f684 e0bc
00000040: 8cc3 253e b4f7 f9bd 92ea 283c 0879 5e3d
00000050: cbdd a1bd 5113 ddbd 7b37 6abc 0552 45be
00000060: 4a2e 323e 71fe f83d 2571 323e 1f79 e53d
00000070: f9c2 b1bd 737f 8ebc d389 00be 88b1 2cbe
00000080: 8ced 26bd 7fee e1bd da37 48be 1039 da3d
00000090: e620 0a3e 3dc5 b7bd 7b0f a7bd 6234 3fbe
000000a0: 0f50 9f3d 6add ac3d 82f0 9abd 32e4 ebbd
000000b0: fb26 953c fd26 d43d f7ec 89bd a6fc 2fbe
000000c0: 5bab bcbd 60a9 0ebe 43f3 44be 3bb1 07be
000000d0: a5cf 8c3d 4ba5 38be 4f29 803d 9e2b 2ebd
000000e0: 9ca5 32be 79cf 463d f3c5 86bd bcfb 7fbc
000000f0: f47f f4bd 6bdb ab3c 1502 e73d 08ba 1d3e
00000100: 88ea e93d 7d4c a63d 4502 f1bd 78e3 c7bd
00000110: de56 05be a9aa 343c 068c 2d3e 9c0f d73d
00000120: 05d1 e63d 3034 21be dc99 41bd 5006 d0bd
00000130: 94ce 443e 7357 ff3d 5039 c4bc 09ad 293a
00000140: 5d37 75bd dff5 41be 91f1 f03d 5cbb 2b3e
00000150: 7a2d f8bd 78d4 073e 0586 7dbb f503 3dbe
00000160: 80bf 12be 38f9 25be f89d 243e 5d48 023d
00000170: 6840 32be 58e4 73bd 9bf4 02be 7508 3ebe
00000180: c8ae 0c3e bce8 17be 8979 0e3e 8002 21bc
00000190: 9d94 46be 6fa1 39be 6562 193e ceae febb
000001a0: 88a9 2f3e 6c7d 38bd 722b 07be 5ac2 e4bd
000001b0: b295 5bbc 418b b63d 97a1 ce3d 54da 843e
000001c0: e966 a43e df70 ea3c 7701 f33d 2ce6 0d3d
000001d0: ef64 f8bc 38df 2c3e 09bd 183e 1a39 8f3d
000001e0: 0c85 af3d eaee 48be c084 c73d 3e04 413e
000001f0: c34e d83d c539 033d 6079 af3d 4a47 1a3e
00000200: bdb7 163e 506f 7abc 1dcc 0abe 0610 1ebe
00000210: 43d4 d8bd 5b23 53bb 166f 30be 0ab0 bc3e
00000220: 3f79 ed3e 77e9 f13e 1ad3 b23e e3a4 913e
00000230: c4a1 d4bd 67cc 1abb 9008 05be 8695 f93d
00000240: 4da8 613b c9b3 42be c9ee a4bc bc48 bdbd
00000250: c897 893d f7eb 47be 98ba b0bd acc3 18be
00000260: 559d d0bd 0d62 19be 53d7 293e 5817 1fbe
00000270: d949 28be c549 df3d 3994 8bbc c025 f4bc
00000280: 502c 353d f8a4 bbbd a686 e0bc a0e9 3bbe
00000290: f4bc 33be 7c4d 97bd ec41 453e 3d92 423e
000002a0: 30cf 6abc f01e 43be 67da 51bd a2ad 20bd
000002b0: 26de b5bd cd49 6dbd a102 f6bd 3075 69bd
000002c0: aa11 0d3e 5efb b0bd b378 c2bd 557a af3c
000002d0: df2e e43c b7a5 0dbb 6c51 92be 0992 dcbd
000002e0: 7589 25be b009 aa3e 0805 fa3e 5e0b 013f
000002f0: 9e67 693e 038c f43e 9341 35be d92d fbbd
00000300: 043d 2c3e d379 0f3e db27 86bd aa80 0a3e
00000310: f0f5 cfbd 7896 453e e6cd 133e cf1e 513a
-0.15947214 0.15494637 -0.038901642 0.090850525 0.18430543 -0.049422156 0.10243159 0.1257089
-0.1969406 0.10673861 -0.057625327 0.012512226 -0.09561013 0.02126611 -0.08379848 -0.02740715
0.16187876 -0.12205449 0.010309832 0.054314643 -0.07903632 -0.107947 -0.014295454 -0.19269569
0.1740047 0.12157906 0.17425974 0.11204743 -0.08679766 -0.017394757 -0.12552576 -0.16864598
-0.040753886 -0.11031818 -0.19552556 0.10655415 0.13489112 -0.08973167 -0.081572495 -0.18672326
0.07778942 0.08440669 -0.075654045 -0.11518134 0.018207064 0.10358999 -0.067346506 -0.17186221
-0.09212371 -0.13931799 -0.19233422 -0.13251202 0.068755426 -0.18031804 0.06257879 -0.042522065
-0.17445987 0.048537705 -0.065807246 -0.015623983 -0.119384676 0.02097865 0.11279694 0.15402997
0.114216864 0.08120058 -0.11768011 -0.09760183 -0.13021418 0.011027017 0.16947946 0.10501024
0.11270336 -0.15742564 -0.047265872 -0.10157454 0.19219428 0.124678515 -0.02395311 0.00064726226
-0.05986725 -0.18941449 0.11764825 0.1677069 -0.12118049 0.13264644 -0.0038684618 -0.1845854
-0.14330864 -0.1620835 0.16075885 0.031807292 -0.17407382 -0.059543937 -0.12788622 -0.18557914
0.13738549 -0.14834875 0.1391355 -0.009827256 -0.19392629 -0.18127988 0.14978941 -0.007772303
0.17154515 -0.045041487 -0.13200167 -0.11169882 -0.013402389 0.08913279 0.100894146 0.2594782
0.32109764 0.028618274 0.11865514 0.034643337 -0.030321566 0.16882026 0.14915861 0.06993313
0.085702986 -0.19622388 0.09742117 0.18849275 0.105618976 0.032037515 0.08568072 0.15066257
0.14718528 -0.015285328 -0.13554426 -0.154358 -0.10587361 -0.0032217118 -0.17229876 0.36853057
0.46381566 0.47248432 0.34926683 0.2844611 -0.10382417 -0.0023620368 -0.12991548 0.121867225
0.003443259 -0.19013895 -0.020133393 -0.092423886 0.06718403 -0.19523607 -0.0862934 -0.14918393
-0.10186259 -0.1497881 0.16586046 -0.15536249 -0.1643442 0.10902742 -0.017038452 -0.029803157
0.044231713 -0.09162325 -0.027407955 -0.1835084 -0.17552549 -0.07387826 0.19263428 0.19001098
-0.014331624 -0.1905477 -0.051233675 -0.03922809 -0.08880262 -0.05793171 -0.1201222 -0.056996524
0.1377627 -0.086416945 -0.09495678 0.021420637 0.027854381 -0.0021613666 -0.28577745 -0.107700415
-0.16165717 0.33210516 0.48831964 0.5040797 0.22793433 0.4776307 -0.17700796 -0.12264604
0.1682015 0.14011316 -0.065505706 0.13525644 -0.10154331 0.1929568 0.14434013 0.0007977308

layer2.0.bias f4 [8]
00000000: 61b3 08be 5df6 053e e8d1 4e3d 27ba 123d
00000010: efdc 0b3b 077a b23c ac70 dbbd a705 fe3b
-0.13349678 0.13082261 0.05049315 0.03582206 0.0021341403 0.021786703 -0.1071485 0.0077521387

layer3.0.weight f4 [10, 8, 2]
00000000: 52e3 493e abec cfbc d0ef 523e 6424 4b3e
00000010: 1f1f 33bd 1803 a8bd 97ed a13d b3b8 bebd
00000020: d761 3cbe 5de4 443e 2c29 46be 5667 eb3d
00000030: 92a7 c2bd 61d3 16be 1263 083c a5b5 933e
00000040: 02f0 19bd aef4 3abe f097 363e b31b e3bc
00000050: 1bde 7a3e 69d7 a13d 3209 5ebd 76e8 5c3e
00000060: 1875 823e 61ff 0c3e 7e16 053f b301 033f
00000070: 1deb 533e 4c61 b93c db0d 0d3f 65c8 2f3f
00000080: 5063 d8bd 13ac 38be 1b87 c33c 9808 793e
00000090: 413f 10be af44 373e 9ccb ed3d b58b 85bd
000000a0: 7955 6dbe 3ad9 b3bb f638 113e 6636 75be
000000b0: 9c62 7c3d b1de e3bd a1f3 b6bd c0ae 213d
000000c0: 2218 cc3d b529 543e fac4 69bd 94a8 9abd
000000d0: fdfc 93bd 9110 4fbe 0b29 2bbe c51d 353e
000000e0: 975c b1bc dac8 223e d8f7 aabd 6060 f4bd
000000f0: 4812 34bd 267a 40be a8a4 323e f220 9a3d
00000100: 3ba5 223e a64b 453d 5e6d ea3d 3677 2bbe
00000110: 3694 7fbe 0ff4 9d3d 4e96 7d3e 3771 15be
00000120: 7a26 c5bd cfb4 91be 2afb 5dbe 71ee f3be
00000130: 8b55 813d 2e7b 0abe f709 44be 5b6e 9cbe
00000140: ffca 013e f795 4d3e 7bb1 73be f7b4 7e3e
00000150: c824 78be b2e1 0abe f194 703d bca0 543e
00000160: 40b7 623c 7741 673d f052 613d c31d 1b3d
00000170: b221 1c3e 5b3b df3d 903a 4ebe 3f47 efbc
00000180: 5c75 263e 8e50 a23d 0a31 4f3e cf10 103e
00000190: 31f0 69be 8bec aabc 4a5c 763e 6cdb b1bd
000001a0: 1d53 953d ca14 1ebe 3749 d4bd 71b4 f43d
000001b0: c16f 7c3d f0b2 e83d 1631 26be 3ecf 6bbe
000001c0: 368d c1bd 8c85 4cbe fcfa 563e eacc 58bd
000001d0: d146 33be e6d8 8b3d 8aba 033d b8a9 02be
000001e0: 1ea4 053e 4b01 64bd 31d3 9f3d 6eaf 173e
000001f0: d7b5 8abd c699 8fbb 6eb2 543e b91b 603d
00000200: 445a ebbd 64a5 383e 1af0 a0bd b58a 24be
00000210: e12d c43c fad1 35bd b1d0 ff3d 8050 0a3e
00000220: 58b7 1c3e 05c5 01bb d777 47be 7fc8 39be
00000230: 26ee b4bc de39 64be 45b8 36be 79c5 b0bd
00000240: 52e6 5cbe f442 0dbd 1710 7d3d 71cf 973c
00000250: 02cc 463e 50f2 f9bc 80c7 ae3d fd71 45bd
00000260: 39a0 823e 9d74 283d 4aef d2bc 5a4d 553e
00000270: 965f 363e b6b7 503e 4d4d e33d fea4 e1bc
0.19715622 -0.025381407 0.20599294 0.198381 -0.04373085 -0.08203715 0.07906645 -0.09312572
-0.18396698 0.19227739 -0.19351643 0.11494319 -0.09504618 -0.14729072 0.008324401 0.2884952
-0.037582405 -0.182574 0.17831397 -0.027723169 0.24498789 0.07902414 -0.054207988 0.21573052
0.2547996 0.13769294 0.51987445 0.5117447 0.20695157 0.022629403 0.55099267 0.6866515
-0.10565817 -0.18034391 0.023868134 0.24319685 -0.1408663 0.17897294 0.11611101 -0.065207876
-0.23177136 -0.005488542 0.14181885 -0.23946533 0.06161748 -0.111264594 -0.08933187 0.039473295
0.099655405 0.20719035 -0.057072617 -0.07551685 -0.07225988 -0.20221163 -0.16714875 0.17687137
-0.021650596 0.15896931 -0.08348054 -0.119324446 -0.043962747 -0.18796596 0.17445624 0.07525815
0.15883343 0.048167847 0.114466414 -0.16744694 -0.24958882 0.07712566 0.24764368 -0.1459397
-0.096264794 -0.28458259 -0.21677843 -0.47642854 0.06315144 -0.13523552 -0.19144426 -0.30552945
0.12675093 0.20076738 -0.23798172 0.2487372 -0.24232781 -0.13562658 0.05873579 0.2076444
0.0138376355 0.056458917 0.055010736 0.03787018 0.15247229 0.10899993 -0.20139527 -0.029208777
0.16255707 0.07925521 0.2023355 0.14068912 -0.22845532 -0.020864746 0.24058643 -0.086844295
0.07291243 -0.15437618 -0.10365527 0.11948479 0.061630014 0.113622546 -0.16229662 -0.23028275
-0.09450762 -0.19972819 0.2099418 -0.052929796 -0.17507483 0.068284795 0.03216032 -0.12760055
0.13050887 -0.055665296 0.078039534 0.14813015 -0.067729644 -0.004382345 0.2077119 0.05471394
-0.11491826 0.18031842 -0.07858296 -0.16068538 0.023947658 -0.044389702 0.124909766 0.13507271
0.15304315 -0.001980127 -0.19479309 -0.1814289 -0.022086214 -0.222877 -0.17843731 -0.08631415
-0.21572235 -0.03448768 0.061782923 0.018531533 0.1941376 -0.030511051 0.08534145 -0.04820441
0.25512865 0.041126836 -0.025748868 0.20830289 0.178099 0.2038258 0.11098728 -0.027544495

layer3.0.bias f4 [10]
00000000: 1e54 da3d 82b2 28bd 4bcf 7abe afb9 7dbe
00000010: aff5 053f 6cf1 f9bc 458d 97bd 7298 febd
00000020: c2e0 b03b 4e3a 8fbb
0.10660575 -0.041185863 -0.24493138 -0.24777864 0.5232801 -0.030510627 -0.07399992 -0.124314204
0.005397887 -0.004370964

fc1.weight f4 [2, 140]
00000000: 611b a2bd 747e 4e3d f71d 213d dbc5 89bc
00000010: 5970 86bd 7554 ad3d fa00 47bd 8d73 0dbd
00000020: b139 a83d 8232 dfbd 8eed 353d baf5 443c
00000030: f395 963d 49bb ee3c 9f0a c53d e3ed 993e
00000040: 10d4 9f3e e00c 913e 3b16 213d 6c1f b53e
00000050: 6cda 293e 6ca9 4c3d 4671 a03e f6d3 efbd
00000060: 8423 543e fc22 7f3e 23f8 813e b81c 193e
00000070: c01e afbc 1cae 26bd 075b fe3b 18b1 a1bd
00000080: af2f a6bd 0d80 2abd 4504 77bd 049e 603a
00000090: 94de 8abc 2149 91bd c2cb 273d 4062 743d
000000a0: d011 173d 96ac b9bb 6090 06bd 83f4 71bd
000000b0: 8fb0 643d 718a e5bc 079b 7cbd dcc0 02bc
000000c0: 1ca4 7f3d b51a 9a3d cb33 933d 2005 8bbd
000000d0: b8e7 893c 6e21 643d 3c40 90bd 3c12 80bd
000000e0: 1f51 32be e753 5cbe d51b 52be 5adc 69be
000000f0: dcbd b8bd e8c1 83be 49aa 10be a76a d4bd
00000100: 0957 59be 3834 b23c c226 80be 95c6 19be
00000110: f7c3 45be fa7c 27bd 12b5 eeba 1931 9c3d
00000120: 03c7 4abd 8299 a53d fc22 99bd a6a9 a6bd
00000130: 94f1 a8bd 7fe1 cbbc 9dc1 bbbc a63d 83bc
00000140: 851d 7dbc 6941 e83c 1ff3 8b3d a82a de3c
00000150: 04a3 913d 1530 12bd 46cf fc3c e82e a7bd
00000160: f793 033d b7ae c8bc 4493 5fbd feba 9c3d
00000170: 4abe 69b9 1864 27bd 66cd 973d df73 0d3c
00000180: d2ab 9bbd 6076 a63c cc8d 853d 6686 f73c
00000190: a264 a6bc 101a 0a3d f190 663b e409 a33d
000001a0: ccc7 d43c 8e89 fbba 9e0d 14bd 5d66 8e3a
000001b0: a5b5 803c f5a1 b7bc 1206 c2bc 43af 8ebd
000001c0: 0c71 debc c0ac 973c ecf5 483d 4ec9 53bd
000001d0: 333d 38bd 2d9f ec3c 8346 793d 48ca 22bd
000001e0: 0b7c 5fba 93a7 c5bb 92fa 203d 8be1 7f3d
000001f0: 69c4 3dbd a298 06bc 7812 87bb 9146 953d
00000200: 6ad0 993d c6b1 e63d 1c15 dfbc 048c c03c
00000210: c178 2a3d 31c9 8a3d 2dc8 df3d 0510 96bd
00000220: 45fc a73d 6aa6 e8bc f05d 91bb b059 21bd
00000230: d448 6cbd 14d4 e8bc 2ff0 cf3c d42c ff3b
00000240: e16f a0bd 141b 213d fd09 1b3d 5627 e23b
00000250: d353 023d 4316 043e 9464 a9bc fc15 0abd
00000260: d86f 6b3d bfed 9b3d 28ea f9bd 0f18 0cbe
00000270: 1e03 22be cde5 9bbe 9168 0bbe 379f 94be
00000280: 925c 4dbe 5906 49be c41d 7abe 553e 773d
00000290: 1419 05be 3411 8abe cc26 b2be 0708 e9bd
000002a0: 768c 8a3b 3e4f 9b3c 314b d13b e559 543d
000002b0: 2c8a d8bc 8c1c e9bb 861e 8e3d 50bb 9bbd
000002c0: 5df5 ce3b f2d2 36bc 4a13 14bd 2b32 84bd
000002d0: 2e1f 16bd b61d 91bd f73c 333d cf52 a73d
000002e0: 9b18 8d3d ad5c a13d 26fa 21bb 560b 853d
000002f0: 60cc 833d 6cb0 a63d ba14 a6bd fdc3 99bc
00000300: f099 99bc 4fb8 a4bd c8c8 75bd 6618 333d
00000310: 1b93 613d 3ca8 f03d 56ee 4e3e 1efe 403e
00000320: fdb8 d33d 9503 4e3e 7e9d de3d 88de c03d
00000330: f1ea 693e cdbf 25be eaa2 4c3e 6e10 5c3d
00000340: d94d 043e ec9b 123e bd75 ecbc 0dd7 553d
00000350: 0455 99bc bc45 4ebd 41dd a73d e5f2 073d
00000360: 3a38 313d 4240 253b 1136 dcbc fe39 113d
00000370: 30ac 693c fa97 2d3d e3e2 3fbd 456b 4d3d
00000380: a919 5ebd 10f1 c03c e8e8 883c 1881 61bd
00000390: 18c1 123c 079a 833d 866b f03c e903 6bbb
000003a0: 417b 7bbc 27c3 4fbd ea66 55bd 91f8 013d
000003b0: eebe 783c 6dc1 1dbc fddb cd3c decf 803d
000003c0: 1353 033d 9aab df3c eeba d4bc 72e6 36bb
000003d0: b948 263d 0a67 e9bc 7d32 9dbd 870e 843d
000003e0: 970e 0dbc 66de 193c 1074 0dbd 4c31 8e3d
000003f0: 3bf0 333d db91 2d3d 56af 9d3d a17c 98bd
-0.07915378 0.050413564 0.039335217 -0.016817978 -0.06564397 0.084633745 -0.048584916 -0.034534026
0.08214129 -0.108983055 0.044416003 0.012021476 0.07352819 0.029142039 0.096211664 0.30064306
0.31216478 0.28330135 0.03932784 0.35375535 0.16587228 0.04996626 0.3133642 -0.1171035
0.20716673 0.24915689 0.25384626 0.14952362 -0.021376967 -0.040693387 0.007762316 -0.07895106
-0.08114564 -0.041626025 -0.060306806 0.0008568468 -0.016951837 -0.07094026 0.040965803 0.05966401
0.03688222 -0.005666326 -0.03285253 -0.059071075 0.055832442 -0.028020116 -0.061671283 -0.007980552
0.062412366 0.07524625 0.07187613 -0.06788087 0.016834125 0.055695944 -0.07043502 -0.06253478
-0.17413758 -0.21516381 -0.2051843 -0.22837964 -0.09020588 -0.25733876 -0.14127459 -0.10371905
-0.21224608 0.021753415 -0.2502957 -0.1501716 -0.19313036 -0.04089067 -0.0018211922 0.07626552
-0.0495062 0.0808592 -0.07477376 -0.081378266 -0.08249202 -0.024887798 -0.02291947 -0.016020607
-0.015448933 0.028351502 0.06833481 0.02711995 0.07111171 -0.035690386 0.030860554 -0.081632435
0.032123532 -0.024497373 -0.054583803 0.076528534 -0.000222915 -0.04086694 0.074122235 0.008633583
-0.076011315 0.020320117 0.06521186 0.030215453 -0.020311657 0.03371626 0.0035181607 0.07960871
0.025974177 -0.0019190775 -0.0361458 0.0010864247 0.015711615 -0.022416094 -0.023684535 -0.06967022
-0.027153514 0.01851499 0.049062654 -0.05170565 -0.04498024 0.028884495 0.06085826 -0.03974369
-0.0008525259 -0.0060319393 0.039301462 0.062470954 -0.04632989 -0.008215101 -0.0041220747 0.0728885
0.07510455 0.11264376 -0.027231745 0.023504265 0.041619066 0.067766555 0.109268524 -0.07327274
0.082024135 -0.028399665 -0.004436247 -0.039392173 -0.05768664 -0.02842144 0.025383083 0.0077873264
-0.07833839 0.039332464 0.037851322 0.006901662 0.031818222 0.12899117 -0.020677842 -0.033712372
0.05747971 0.07613706 -0.12202865 -0.13681053 -0.15821502 -0.30448762 -0.13614108 -0.2902772
-0.20054844 -0.19631328 -0.24425417 0.06036218 -0.12997848 -0.2696625 -0.34795225 -0.11378484
0.00422817 0.018958684 0.0063871373 0.051843543 -0.026433073 -0.0071139988 0.06939416 -0.076040864
0.0063158707 -0.011158692 -0.036151208 -0.06454881 -0.03665083 -0.07085745 0.043759312 0.08170091
0.06889459 0.078790046 -0.002471575 0.06496303 0.06435466 0.081391186 -0.08109422 -0.018770212
-0.018750161 -0.080429666 -0.060005933 0.04372444 0.05507193 0.11750838 0.20208105 0.18846938
0.10338018 0.20118554 0.10869883 0.094174445 0.2284353 -0.16186447 0.19984022 0.053726606
0.12920322 0.14317292 -0.028864736 0.05220704 -0.018717296 -0.050359473 0.08196498 0.033190627
0.043266512 0.0025215303 -0.02688125 0.035455696 0.014262244 0.042381264 -0.046847235 0.05015113
-0.05422369 0.023552448 0.01671262 -0.055054754 0.00895717 0.06425863 0.029348146 -0.0035860485
-0.01534921 -0.05072322 -0.0521001 0.031731192 0.01518224 -0.009628636 0.025129313 0.062896475
0.032061648 0.027303506 -0.025968041 -0.0027908352 0.040596697 -0.028491516 -0.076756455 0.06448083
-0.0086094355 0.009391403 -0.034534514 0.069429964 0.043930274 0.042375427 0.07699458 -0.07445646

fc1.bias f4 [2]
00000000: 976e 00be 1777 e23d
-0.12542187 0.11057871
